src/last_brain.pth (torch, 6721 bytes, 12 tensors)

fc1.weight f4 [30, 5]
00000000: a8a9 debe 581f 683e de9f c4be 1820 463e
00000010: 028d a03e 5604 53be 9c53 833e 5e4d 53be
00000020: 9821 b93d da5c d03e 5f44 86be 35bb 8bbe
00000030: 973a f23c 2777 223e 626c 62be 4d3b 413e
00000040: 9e27 52be d1ca f3be 6c8c 21be 0e0b 843d
00000050: d54f 673e 2ae4 d23e cf67 b3be 2031 83bd
00000060: ccff 9abe 12c2 adbe 8cfa cfbe e47c 973c
00000070: ac1c ea3d c2e8 65be fbef a13d 2b28 9c3e
00000080: 7cf8 303f e81e 04bf 6e26 cf3e a6b5 433d
00000090: 274e fc3e 6c14 acbe 96a0 113f 1ebe 1ebf
000000a0: 692a 293e 3cb4 a7be 6959 11bf e5b0 eb3d
000000b0: 93b2 0dbd aef6 52be 18dc 16be 9bfb 43be
000000c0: 0005 83be 609b 88bd e70c 2e3f 9ac6 ec3e
000000d0: 766f 693e eb4c 02bf 47ab c53e 3cbb a3be
000000e0: 02c9 e1be 3f1f bfbd f25b 5ebd 794d b0be
000000f0: c9ed 53be a222 433e e2ab 873e 947b 0c3f
00000100: cfa4 c3be caf1 5b3e 830d 38be a920 d9be
00000110: 0606 e13d 2682 a3bb 5fd5 d9be a89d 85be
00000120: ccd3 7fbe 2552 55bd e7f6 b63e 4a66 8e3e
00000130: ce06 ce3e 01e0 813e e8b1 08bf f43b febd
00000140: 0d51 c4be 42c4 56be 9ebf f6bd 9f4a 93bd
00000150: a147 88bd 2a51 823e 205c b03e 2563 303e
00000160: 0e0a 20bf 23c8 283f f1ba 8bbe d67b 0d3f
00000170: e446 263e c6c0 c7be dac2 493e 76af 823e
00000180: 9455 d3bd f6e9 2dbe 8d07 693e 0e7f efbd
00000190: 395d b7be ec3c c4be d985 05bd 14c6 93be
000001a0: 47c4 d2be 2402 f73e 430f 813c 123e 6e3e
000001b0: 7555 8bbd 77ac 15bc 00f3 963d 45e5 b5be
000001c0: 250c a1be b09f fb3d a4c2 163e 9bc1 1f3e
000001d0: b37e 2fbe 3a56 29be 6782 893e 8e24 bb3d
000001e0: edc9 88be dcf2 773e ef64 c43e 5d80 c33e
000001f0: 9059 3bbe 4719 363f 7ab8 153f d76d c63e
00000200: e893 ffbd 5cff d63d 7cfc 5f3e 5836 90be
00000210: 6553 57be d4a6 88bd 78c1 a43d a79c 94be
00000220: bc39 623e 95c7 84bb 5e59 8ebe 2190 c3be
00000230: 4b3f 6f3e f717 893e 8eb1 c0bd b3cf 783e
00000240: 3296 f33e 1cb4 d0bd 2d42 e93d 7685 ecbe
00000250: 985b 2abe ee6c ac3d
-0.43488812 0.22668207 -0.3840322 0.1934818 0.3135758 -0.20607123 0.25649726 -0.20634982
0.090396106 0.4069584 -0.26224038 -0.27291265 0.029568953 0.15865766 -0.22111657 0.18870278
-0.20522925 -0.47615674 -0.15776223 0.06447421 0.22589047 0.411897 -0.35040137 -0.06405854
-0.30273283 -0.33937126 -0.4062084 0.01849217 0.1143125 -0.22452071 0.07907101 0.30499396
0.6912916 -0.5160966 0.40459007 0.047780655 0.49278376 -0.3360933 0.5688566 -0.62008846
0.16520084 -0.32754695 -0.56777054 0.11508349 -0.03459413 -0.20601913 -0.14732397 -0.19138949
-0.25589752 -0.066702604 0.6798844 0.4624527 0.22796425 -0.5089862 0.38607237 -0.31978786
-0.4409867 -0.093321316 -0.054286905 -0.34434107 -0.20696177 0.1905618 0.26498324 0.54876065
-0.38211676 0.21478954 -0.17973904 -0.4240773 0.10987477 -0.00498988 -0.42545602 -0.26096845
-0.24983138 -0.052080292 0.35735247 0.27812415 0.40239567 0.25366214 -0.53396463 -0.12413779
-0.38343087 -0.20973304 -0.12048267 -0.07191967 -0.06654287 0.25452548 0.34445286 0.1722532
-0.6251534 0.65930384 -0.27291062 0.55267084 0.1623798 -0.39014262 0.19703236 0.2552449
-0.10319057 -0.1698378 0.22756787 -0.11694156 -0.3581331 -0.3832773 -0.03259835 -0.2886206
-0.41165373 0.4824382 0.015754348 0.23265865 -0.06803409 -0.009135357 0.07370567 -0.3552648
-0.31454578 0.12286317 0.14722687 0.15601198 -0.17138176 -0.16536799 0.26857302 0.09137832
-0.26716557 0.24213737 0.38358256 0.3818387 -0.18295884 0.7113232 0.58484614 0.38755676
-0.12479383 0.10497925 0.21873659 -0.2816646 -0.21027906 -0.06672445 0.08044714 -0.29025766
0.22092336 -0.0040521123 -0.27802557 -0.381959 0.23363988 0.26776096 -0.09408866 0.24297981
0.47575527 -0.10190603 0.11389575 -0.46195573 -0.16636503 0.08419214

fc1.bias f4 [30]
00000000: cf51 8ebe 8606 9ebe 3a5b ec3e 64bd c73e
00000010: b645 b4be 1ce8 bf3e b19b 11be 7ae7 91be
00000020: 8fd7 d83e a72f bcbe 4981 85bd 143e ef3e
00000030: 9c6b 19bd b128 0abe fffb 0cbe d4c3 923d
00000040: e35b b03e 1f09 873d 0441 a73e 56af a5be
00000050: e61a 66be 9183 49bd a438 723e ff5e a5bc
00000060: 92f7 2cbd 9e2c 4a3e 75ec afbe 294e 89be
00000070: 51e5 983e 1249 b43e
-0.2779679 -0.30864352 0.4616335 0.3901168 -0.35209435 0.37481773 -0.14219548 -0.28496915
0.42351958 -0.36755106 -0.065188 0.4672705 -0.03745614 -0.13492085 -0.13768004 0.071662575
0.34445104 0.065935366 0.3266679 -0.32360333 -0.22471198 -0.049197737 0.23654419 -0.0201869
-0.04222829 0.19743583 -0.3436009 -0.26817444 0.29862455 0.35211998

fc2.weight f4 [3, 30]
00000000: e9a8 38be 1f7b 3cbd f8a2 b13c f3cd 0b3d
00000010: 8c5f 2fbd 7adb 983e 1a69 c4be eece ccbd
00000020: bd7d c63e d45a 0c3e 3a20 87be 7432 eb3d
00000030: fbd5 8ebd 370d 953b 1786 43bc 3b78 86be
00000040: 3862 3a3e 582a 95be a391 81be 9c34 3abe
00000050: 93fb 503d 3e97 57bd 69a5 af3c 8bf6 25be
00000060: c0ce 44be 3e07 cebe 3413 c13d b1cf cabd
00000070: 8a12 e8bd 04b2 783d ced9 383e 4868 a83c
00000080: 970c 393e 6cdd 4b3e b808 9a3d 6fd3 3b3e
00000090: d140 56be 679e c0be c50b bb3e 7c6c f23d
000000a0: 218b 1abe 20e8 113e ea78 92be a2fd e43c
000000b0: 917a babe a8f2 4dbe 33f2 b73e 9fa0 aebe
000000c0: 58d1 f4bd abba 0e3d e4cc fd3d 87f0 1fbe
000000d0: 41bd 9d3d 0844 68be 2f5f 61bd a6d0 cebe
000000e0: 8467 af3d 4c1d 223e 8703 58bb 752d 993e
000000f0: db85 a7bd 32ed 07be a4b8 2f3e d177 093e
00000100: 3311 f83c 8223 1f3e d749 7fbe c361 9dbd
00000110: 78f9 703e d089 2b3d 1f2b f5be 0c2e af3e
00000120: 0a96 7abe 7896 dcbd 8d9c 63be 32de 4fbe
00000130: 5784 283e 69fc d9be b700 04bd 7080 31be
00000140: e0d4 bb3d 9930 bcbe 22de be3e a502 50bd
00000150: 6468 97be 6b81 19be 50e1 a93c 60a3 2e3d
00000160: 823d 6abe 0dea 823e
-0.18033184 -0.046015855 0.021684155 0.034131955 -0.04281573 0.29854947 -0.38361436 -0.10000406
0.38767806 0.13706523 -0.26391774 0.114842325 -0.06974407 0.0045486945 -0.011933825 -0.26263604
0.1820153 -0.29133868 -0.25306424 -0.18184131 0.05102117 -0.05263447 0.021441178 -0.1620733
-0.19219494 -0.402399 0.09427491 -0.09902895 -0.11331661 0.060716644 0.18051836 0.020557538
0.18071209 0.19908684 0.07521194 0.18342374 -0.20923163 -0.3762085 0.36532417 0.11837098
-0.15092136 0.14248705 -0.28607875 0.027952973 -0.36421636 -0.20112097 0.3592697 -0.3410692
-0.11953992 0.03484599 0.123925954 -0.15619098 0.07702113 -0.22682202 -0.055022415 -0.4039356
0.08564666 0.15831488 -0.0032961087 0.29917493 -0.08179828 -0.13274077 0.17160279 0.13424613
0.030281639 0.15540889 -0.24930511 -0.07684662 0.23532665 0.041879475 -0.4788446 0.34214818
-0.24471298 -0.10770887 -0.22227688 -0.20299605 0.16456734 -0.42575386 -0.032227244 -0.17334151
0.09171462 -0.36755827 0.3727885 -0.050783772 -0.2957183 -0.14990775 0.02073732 0.042636275
-0.22875026 0.25569192

fc2.bias f4 [3]
00000000: e12f 533d 605c 1ebe 00e4 57be
0.051559333 -0.15464926 -0.21083069

exp_avg f4 [30, 5]
00000000: d4c7 cd3a 0000 0000 e22f 093a 0000 0000
00000010: 0000 0000 2eb8 c139 0000 0000 7425 0139
00000020: 0000 0000 0000 0000 9ece 873b 3f8f 3d3b
00000030: 41b3 923b 5c85 293b 5c85 29bb 54ba 483a
00000040: b83e b0b9 037b 4f3a 388b 003b 388b 00bb
00000050: 9af8 05ba 9af8 05ba fbeb f6b9 47d3 85b9
00000060: 47d3 8539 b07b cd37 0000 0000 0602 493a
00000070: 1983 033b 1983 03bb 4065 dcbc 025d d0bc
00000080: acf9 dcbc e39f 81bb e39f 813b 9f8e b5bb
00000090: 8392 afbb 18a9 abbb 531e 85bb 531e 853b
000000a0: f0bd 2c3a d2a7 dd39 b5de 9f3a 1bed 663b
000000b0: 1bed 66bb 789e a3ba 0000 0000 a228 dab9
000000c0: 0000 0000 0000 0000 f6be d8bc 8de1 bfbc
000000d0: da1f d4bc 9fe7 4fbb 9fe7 4f3b 1564 bc3a
000000e0: 0000 0000 7cc2 113b 7698 9c3a 7698 9cba
000000f0: cd2f 94bb cc65 9fbb 1674 a5bb 62a7 44bb
00000100: 62a7 443b 2f57 7638 8495 c933 0000 0000
00000110: 7cb0 ec37 7cb0 ecb7 9b15 9b38 0000 0000
00000120: 3349 cf37 14f2 9fb9 14f2 9f39 3c28 aebc
00000130: e55e 9cbc a40e a6bc 4d75 5cbb 4d75 5c3b
00000140: 2e8f cfba 0000 0000 283a ceb9 8bd6 4f3b
00000150: 8bd6 4fbb b8fa ffbc e71e e9bc 8faf 00bd
00000160: 288a 5ebb 288a 5e3b b627 4cbc 4a16 69bc
00000170: 248f 5cbc fa2c 1dbb fa2c 1d3b 4d04 14ba
00000180: 0000 0000 0000 0000 5de6 3bb9 5de6 3b39
00000190: 881f feb9 0000 0000 5a6a 29b9 0000 0000
000001a0: 0000 0000 3199 51bc 8b90 31bc 773f 59bc
000001b0: d664 113a d664 11ba 2446 063a 0000 0000
000001c0: aa1c 143a d4a7 013a d4a7 01ba fd2b 28ba
000001d0: f2a7 11b9 0000 0000 0ac4 95ba 0ac4 953a
000001e0: 2248 31bc e9db 45bc b83a 48bc c190 b9ba
000001f0: c190 b93a 12c9 07bd 62aa f4bc b63b 00bd
00000200: 4934 65bb 4934 653b 0000 0000 0000 0000
00000210: 0000 0000 0000 0000 0000 0000 e2ad 5c3a
00000220: 0000 0000 971e 9339 0000 0000 0000 0000
00000230: 8464 17bc 1e1d 06bc 9f16 15bc 41d0 4bba
00000240: 41d0 4b3a 7a99 833a 6785 ad3a ebab 883a
00000250: 6c3b 0d3b 6c3b 0dbb
0.0015699812 0.0 0.00052332703 0.0 0.0 0.00036949053 0.0 0.00012316351
0.0 0.0 0.0041445037 0.0028924493 0.004476935 0.0025866842 -0.0025866842 0.00076571596
-0.00033616065 0.00079147535 0.001961423 -0.001961423 -0.0005110592 -0.0005110592 -0.00047096596 -0.0002552515
0.0002552515 2.44955e-05 0.0 0.0007667843 0.0020067154 -0.0020067154 -0.026903749 -0.025434975
-0.026974522 -0.0039558276 0.0039558276 -0.0055406834 -0.0053580417 -0.0052386634 -0.004062453 0.004062453
0.0006589582 0.0004227744 0.0012197109 0.003523654 -0.003523654 -0.001248314 0.0 -0.00041610474
0.0 0.0 -0.026458245 -0.02342298 -0.025894094 -0.003172375 0.003172375 0.0014373088
0.0 0.0022241166 0.0011947292 -0.0011947292 -0.0045223 -0.00486443 -0.005049239 -0.0030006994
0.0030006994 5.8732167e-05 9.3869886e-08 0.0 2.8215574e-05 -2.8215574e-05 7.395e-05 0.0
2.4710409e-05 -0.00030507206 0.00030507206 -0.02125942 -0.019088218 -0.020270653 -0.0033639253 0.0033639253
-0.0015835518 0.0 -0.00039334712 0.003171357 -0.003171357 -0.031247482 -0.028457118 -0.031417426
-0.003395686 0.003395686 -0.01246064 -0.0142265055 -0.013461862 -0.0023983107 0.0023983107 -0.0005646393
0.0 0.0 -0.00017919527 0.00017919527 -0.00048470148 0.0 -0.00016156715 0.0
0.0 -0.012792871 -0.010837684 -0.01325976 0.0005546337 -0.0005546337 0.0005122146 0.0
0.0005650023 0.0004945968 -0.0004945968 -0.0006415246 -0.00013890842 0.0 -0.0011426222 0.0011426222
-0.01082042 -0.012076356 -0.012221031 -0.001415752 0.001415752 -0.03315074 -0.029866401 -0.031306945
-0.0034973791 0.0034973791 0.0 0.0 0.0 0.0 0.0 0.00084182445
0.0 0.00028060816 0.0 0.0 -0.009240273 -0.008185653 -0.009099632 -0.00077748677
0.00077748677 0.0010040246 0.001323861 0.0010427212 0.002155031 -0.002155031

exp_avg_sq f4 [30, 5]
00000000: 3bbc a734 0000 0000 1619 1533 0000 0000
00000010: 0000 0000 6dd5 1b32 0000 0000 d384 8a30
00000020: 0000 0000 0000 0000 25dc ce36 cac3 5b36
00000030: 685d de36 0eaa 7635 0eaa 7635 0120 3736
00000040: db1c c535 73b3 2836 44cb 4b35 44cb 4b35
00000050: 3d1b 1432 3d1b 1432 0c71 0732 2418 1731
00000060: 2418 1731 0b7a 3535 0000 0000 2b34 bf34
00000070: 47d7 0e35 47d7 0e35 ed6c 1b38 40f8 0738
00000080: 3b5a 2538 ca8f 1036 ca8f 1036 9fa6 9035
00000090: db94 8b35 30a2 8835 348f 0836 348f 0836
000000a0: 138e bb35 76e6 7d32 b027 0c35 0712 e735
000000b0: 0712 e735 793f ac34 0000 0000 f71b 1933
000000c0: 0000 0000 0000 0000 c80f 9138 9e1d 5c38
000000d0: 75b6 9238 64e9 5f36 64e9 5f36 1a04 9835
000000e0: 0000 0000 89cc ed35 4854 4534 4854 4534
000000f0: a564 bd35 e234 c135 f7df e335 4535 8c35
00000100: 4535 8c35 9cb7 9730 9250 e42d 0000 0000
00000110: 5c23 0b33 5c23 0b33 8040 6931 0000 0000
00000120: 306f a130 3746 b934 3746 b934 c5c8 b037
00000130: dba8 8f37 9e76 af37 db49 8635 db49 8635
00000140: f6a8 7034 0000 0000 ef9f 5e34 a210 ca35
00000150: a210 ca35 2a46 b038 0a01 8f38 acff b738
00000160: 2857 a136 2857 a136 dd27 1537 4047 1c37
00000170: 9e12 2137 da51 8135 da51 8135 0376 d032
00000180: 0000 0000 0000 0000 f84e 0434 f84e 0434
00000190: 030d 9833 0000 0000 0228 0732 0000 0000
000001a0: 0000 0000 81f1 3437 a0f9 0337 92e7 3e37
000001b0: e489 8434 e489 8434 0f54 8a34 0000 0000
000001c0: 8b98 8534 06d9 ff33 06d9 ff33 5c73 c232
000001d0: 1487 a130 0000 0000 e6f5 2c34 e6f5 2c34
000001e0: 743c 5536 2fba 6c36 f0d3 7f36 f643 8034
000001f0: f643 8034 33ca b438 4115 9438 d41f be38
00000200: 51d2 cc36 51d2 cc36 0000 0000 0000 0000
00000210: 0000 0000 0000 0000 0000 0000 221c 9b33
00000220: 0000 0000 21e0 0932 0000 0000 0000 0000
00000230: 32b9 cc36 3a0e a236 6225 d536 1b6e fe34
00000240: 1b6e fe34 5741 7634 0113 4a34 8091 4334
00000250: e6f4 a135 e6f4 a135
3.124313e-07 0.0 3.471458e-08 0.0 0.0 9.070715e-09 0.0 1.0078572e-09
0.0 0.0 6.1649066e-06 3.2747507e-06 6.6269895e-06 9.1889603e-07 9.1889603e-07 2.7287754e-06
1.4686042e-06 2.5138404e-06 7.5919183e-07 7.5919183e-07 8.620927e-09 8.620927e-09 7.883738e-09 2.1987114e-09
2.1987114e-09 6.760535e-07 0.0 3.561448e-07 5.321239e-07 5.321239e-07 3.7056325e-05 3.241771e-05
3.94231e-05 2.1541368e-06 2.1541368e-06 1.0777329e-06 1.039963e-06 1.0179992e-06 2.0348934e-06 2.0348934e-06
1.3973935e-06 1.4778939e-08 5.2211817e-07 1.7216088e-06 1.7216088e-06 3.208368e-07 0.0 3.5648522e-08
0.0 0.0 6.917078e-05 5.247967e-05 6.995808e-05 3.336544e-06 3.336544e-06 1.1326076e-06
0.0 1.7717404e-06 1.8377716e-07 1.8377716e-07 1.4110889e-06 1.4395011e-06 1.6978e-06 1.0446316e-06
1.0446316e-06 1.1038881e-09 2.595638e-11 0.0 3.239562e-08 3.239562e-08 3.3942626e-09 0.0
1.1745893e-09 3.4510023e-07 3.4510023e-07 2.1074326e-05 1.7125558e-05 2.0916861e-05 1.0005273e-06 1.0005273e-06
2.241321e-07 0.0 2.0733545e-07 1.5055014e-06 1.5055014e-06 8.405403e-05 6.818965e-05 8.7737426e-05
4.80832e-06 4.80832e-06 8.8903735e-06 9.314914e-06 9.6006825e-06 9.635071e-07 9.635071e-07 2.4268052e-08
0.0 0.0 1.2322187e-07 1.2322187e-07 7.0804184e-08 0.0 7.867131e-09 0.0
0.0 1.0785066e-05 7.866329e-06 1.1378799e-05 2.4687245e-07 2.4687245e-07 2.5765664e-07 0.0
2.488417e-07 1.1913839e-07 1.1913839e-07 2.2637032e-08 1.1752683e-09 0.0 1.6108206e-07 1.6108206e-07
3.1774662e-06 3.5275114e-06 3.8121325e-06 2.3891306e-07 2.3891306e-07 8.6207314e-05 7.061149e-05 9.0658345e-05
6.104158e-06 6.104158e-06 0.0 0.0 0.0 0.0 0.0 7.222867e-08
0.0 8.025411e-09 0.0 0.0 6.1012333e-06 4.8296324e-06 6.3522466e-06 4.73913e-07
4.73913e-07 2.2934306e-07 1.881963e-07 1.8213723e-07 1.206671e-06 1.206671e-06

exp_avg f4 [30]
00000000: e22f 09ba 7425 01b9 ecaf 1abb d4dd c5bb
00000010: 9af8 05ba 682d 17bc fcb4 bdbc 24fa cabb
00000020: 94c5 79bc a228 da39 a79c b1bc 2591 d5bb
00000030: d90d 7abb 6157 7638 775a 953a 40b9 30bc
00000040: 6c67 68bc 4c2f 89bc ca5f b9bb 128d f6b9
00000050: 5a6a 2939 c587 5bbc 2954 b5bb 1a3a 80b9
00000060: aab0 3abc 0278 0fbc 0000 0000 971e 93b9
00000070: 59a9 a5bb 824d 23bc
-0.00052332703 -0.00012316351 -0.0023603393 -0.006038407 -0.0005110592 -0.009227134 -0.02315759 -0.00619437
-0.01524486 0.00041610474 -0.021681143 -0.0065175467 -0.0038155227 5.873235e-05 0.0011394758 -0.010786355
-0.014184814 -0.016746186 -0.005657171 -0.00047025882 0.00016156715 -0.013399069 -0.0055337143 -0.00024457352
-0.011394659 -0.008756639 0.0 -0.00028060816 -0.005055588 -0.00996721

exp_avg_sq f4 [30]
00000000: 1619 1533 d384 8a30 5764 dd36 6ebf c836
00000010: 3d1b 1432 866f 1e37 a13e 0f38 aae2 4a36
00000020: af46 0238 f71b 1933 c39b 8238 407a 8436
00000030: a1fc 0236 05ac e932 6971 4935 242b 2337
00000040: 3f82 9d37 1ef0 3b38 69a5 9836 c212 4134
00000050: 0228 0732 f2d9 3e37 6f82 3236 ff2c 2934
00000060: d47f 5e36 2d5c b737 0000 0000 21e0 0932
00000070: dd75 a936 f70c 3637
3.471458e-08 1.0078572e-09 6.5979943e-06 5.98275e-06 8.620927e-09 9.4435e-06 3.4152185e-05 3.0232281e-06
3.1060245e-05 3.5648522e-08 6.227896e-05 3.9481383e-06 1.951856e-06 2.7202995e-08 7.504337e-07 9.725602e-06
1.8776509e-05 4.48079e-05 4.5492093e-06 1.798135e-07 7.867131e-09 1.1375627e-05 2.659999e-06 1.5755721e-07
3.3154984e-06 2.1858223e-05 0.0 8.025411e-09 5.0503136e-06 1.0851064e-05

exp_avg f4 [3, 30]
00000000: 2b2c 873b c821 bd3a be8b 2dba 25f3 bcbb
00000010: d477 253a 0c09 68bb 851a df3c 50bb 5f3c
00000020: 9816 aabb f35f b23a 394b 3d3d b3be 9ebb
00000030: a214 933c 6cd2 023a d535 873b 0769 133d
00000040: f5a5 33bb 908f 933c 948a ac3c 67f3 8a39
00000050: 4659 2e3b 24ef e53c 83aa 46bb e59c 0d3a
00000060: 6d22 853c b056 9f3d 0000 0000 7ae7 e23a
00000070: 4103 b33c b65e 66bb 0000 0000 0000 0000
00000080: 7b90 dcbb a1af 3ebc 0000 0000 1608 cebb
00000090: 5f6a d23c 517b e13b a234 1abc 0000 0000
000000a0: d37a 0f3d 8775 15bc 6a0c ff3b df9e 652e
000000b0: 1a49 cc38 1eed bc3c dc6d 0dbc 001c 993c
000000c0: 97e7 023c 41c7 7f37 0000 0000 ef3e 8e3c
000000d0: 1976 c6bb 58ae 373a d7aa c83b 6588 333d
000000e0: 0000 0000 0000 0000 fb82 063c 4185 36bc
000000f0: 0000 0000 0000 0000 1c4b 3dbb 10a0 7fbb
00000100: 900b 4d37 277c 61bb 5d05 a03c 1cf1 973a
00000110: 28ae 9bbb 0000 0000 65e4 dc3c 49a7 93bb
00000120: 5716 0f3b 0000 0000 b8f3 5bb8 c021 9e3c
00000130: a0c9 60bb 4405 8a3c e485 3d3c 0000 0000
00000140: 0000 0000 961a 5b3c c38f 26bb e017 1cb8
00000150: 8eea 5a3b 3ac7 193d 0000 0000 0000 0000
00000160: 359b 2c3c 055f 78bb
0.0041251383 0.0014429623 -0.00066202495 -0.00576629 0.0006312106 -0.0035405783 0.027234325 0.013655499
-0.0051906817 0.0013608917 0.046214316 -0.0048445105 0.017954174 0.0004990462 0.0041262903 0.035988834
-0.002741215 0.018012792 0.021062173 0.0002650276 0.0026603504 0.028068133 -0.0030314035 0.0005402102
0.016251767 0.07780206 0.0 0.0017311417 0.021852138 -0.0035151667 0.0 0.0
-0.0067310906 -0.011638553 0.0 -0.006287585 0.025685487 0.0068811555 -0.009411963 0.0
0.035029244 -0.009122259 0.0077834623 5.2209678e-11 9.741094e-05 0.023062285 -0.00863215 0.01869011
0.007989786 1.5245577e-05 0.0 0.017363993 -0.006056559 0.0007006875 0.0061238813 0.043831248
0.0 0.0 0.008209939 -0.011140169 0.0 0.0 -0.002888388 -0.0039005317
1.2221644e-05 -0.0034406276 0.019533807 0.0011592242 -0.0047509857 0.0 0.026964376 -0.004506026
0.0021833384 0.0 -5.244065e-05 0.019303203 -0.0034299865 0.016848214 0.011567567 0.0
0.0 0.013373038 -0.0025415279 -3.7215534e-05 0.0033403966 0.037543513 0.0 0.0
0.010535051 -0.0037898433

exp_avg_sq f4 [3, 30]
00000000: 1f4b 1d36 e90a 6c34 f62e 4237 8f44 0737
00000010: 4293 9632 17f9 8736 a00e 3338 34e9 9136
00000020: eb9f b936 fb3e ea34 3e2c 1439 dcf6 2e37
00000030: 0596 0d37 a7b5 e132 a018 4336 30c5 5338
00000040: a035 b536 e9f0 1838 af0f 0f38 78f2 9631
00000050: 3d10 b835 9b14 ae37 51e2 0f36 bdb9 db32
00000060: 1fe8 d436 3e95 bb39 0000 0000 2f72 b134
00000070: 070a 9837 1bc6 a036 0000 0000 0000 0000
00000080: fd48 0538 3e11 2f38 0000 0000 0ce6 3437
00000090: e156 a438 843f 2e37 93a6 6437 0000 0000
000000a0: d36b 7e39 e32d e337 a029 3237 10da 6734
000000b0: 103b 9834 2a71 8038 f2fc 0d37 2ebf a938
000000c0: 4cc6 a138 eab8 0f35 0000 0000 b97a 7837
000000d0: 41a6 5c37 f465 0433 c5a4 9336 ef73 ff39
000000e0: 0000 0000 0000 0000 d3b7 c237 5d15 8937
000000f0: 0000 0000 0000 0000 78ca be36 00e4 8236
00000100: d162 832d 9325 c935 068e 6b38 b730 2534
00000110: 68d0 2436 0000 0000 e681 5b39 caf3 3036
00000120: 728c 5935 0000 0000 0841 c632 6c83 6e38
00000130: 6c36 9035 a879 7638 4cea 6838 0000 0000
00000140: 0000 0000 b1b6 5e37 7580 1035 610e b02e
00000150: 1dc1 2635 fdef 193a 0000 0000 0000 0000
00000160: 8010 f437 5717 9935
2.343855e-06 2.1983182e-07 1.1574235e-05 8.06259e-06 1.7529263e-08 4.0523114e-06 4.2690546e-05 4.348485e-06
5.5320465e-06 4.363172e-07 0.00014130861 1.0428685e-05 8.439184e-06 2.6276053e-08 2.9071598e-06 5.0489965e-05
5.400463e-06 3.646399e-05 3.4108463e-05 4.39314e-09 1.3713794e-06 2.0752012e-05 2.1440394e-06 2.557942e-08
6.345115e-06 0.00035778614 0.0 3.30519e-07 1.8124481e-05 4.791434e-06 0.0 0.0
3.1777647e-05 4.173931e-05 0.0 1.0782398e-05 7.836312e-05 1.0385997e-05 1.3628643e-05 0.0
0.00024263495 2.7081876e-05 1.0619318e-05 2.1592882e-07 2.835518e-07 6.124594e-05 8.463148e-06 8.094158e-05
7.714014e-05 5.3540737e-07 0.0 1.48105255e-05 1.3151731e-05 3.082637e-08 4.400123e-06 0.00048723767
0.0 0.0 2.3212202e-05 1.634162e-05 0.0 0.0 5.6860117e-06 3.9008446e-06
1.4936859e-11 1.4986603e-06 5.6160636e-05 1.5384545e-07 2.4559213e-06 0.0 0.00020933858 2.6367948e-06
8.1043174e-07 0.0 2.3079807e-08 5.6866018e-05 1.0744675e-06 5.876427e-05 5.5531316e-05 0.0
0.0 1.3274767e-05 5.383111e-07 8.0061076e-11 6.2120836e-07 0.0005872248 0.0 0.0
2.909475e-05 1.1406181e-06

exp_avg f4 [3]
00000000: 2610 e63c 9721 f93a 0021 4c3c
0.028083872 0.0019007203 0.01245904

exp_avg_sq f4 [3]
00000000: de5b d738 d1cd ac39 9080 b039
0.000102691105 0.00032959742 0.00033665122
