src/last_brain.pth (torch, 6721 bytes, 12 tensors)

fc1.weight f4 [30, 5]
0.847612 0.5969918 -0.1411023 1.4427345 -1.1760368 -0.6177347 -0.43044323 0.58502144
1.4488719 -1.4530745 0.9871845 2.0352924 0.7248927 0.258312 -0.40637013 1.1460173
0.6191473 0.08085787 0.5107598 -0.8343228 0.11449641 0.0678578 -0.37728924 0.22304559
0.2390576 0.18239082 -0.3812571 -0.36121944 0.10332674 -0.05903386 -0.003818993 0.22424845
1.5722749 0.19687058 -0.5946201 0.5780883 0.8104991 -1.2340827 -0.24822329 0.34499857
-0.77431405 0.12824456 -2.493665 1.4100072 -1.419615 0.5057502 -0.8794823 -0.76587033
1.1545211 -1.2661742 0.036907908 -0.31951308 -0.4263452 -0.3654386 -0.07770369 0.4633534
0.72276986 0.18434736 0.1771628 -0.06975652 -0.5684001 0.07010152 0.5121905 0.6281853
-1.0077604 -0.24034677 -0.26892978 0.0058431886 -0.1456195 0.12790476 -0.2760373 -0.717666
0.99474084 1.0782372 -1.2944518 -0.08505303 -0.06348857 -0.20390032 -0.28157002 -0.14807871
0.31132764 -0.23103759 0.3854413 0.81333387 -1.0568357 -1.1419634 -4.951116 0.45571905
0.24002063 -0.3942293 -5.701023 -7.683947 -11.9520235 -0.33736238 -0.35471228 1.4956036
0.6826053 0.6913548 0.8671753 -0.21833177 1.2580651 -0.95515436 -0.40925202 0.5004512
-0.40411252 -0.69564724 1.2058882 0.6929157 -1.1120653 1.0675275 -0.084439784 -0.4314493
0.009393425 0.26028815 -0.2042706 1.3232423 0.34768853 1.1570625 -0.2873173 -0.06335235
-0.50248086 -0.45092058 -0.16341318 1.1460971 -0.91748047 1.5317626 -0.7010553 -4.2419686
0.010736962 -0.017423578 -0.36272708 -1.8742821 1.578072 0.6637845 -0.48057547 -0.15372722
-1.6857567 0.92172074 0.8837198 -0.852471 0.18248135 -0.23416635 -0.044377774 -0.16486254
-0.21188258 -1.6500391 0.66685957 0.37731674 1.3306187 -1.3239754
00000000: 1afd 583f 74d4 183f 1f7d 10be 86ab b83f
00000010: 6088 96bf dc23 1ebf 0e63 dcbe f7c3 153f
00000020: a274 b93f 58fe b9bf 20b8 7c3f 3b42 0240
00000030: 9192 393f 7841 843e bf0f d0be b2b0 923f
00000040: 7080 1e3f d098 a53d 27c1 023f 2e96 55bf
00000050: 187d ea3d 08f9 8a3d 0e2c c1be 1066 643e
00000060: 84cb 743e a9c4 3a3e 2134 c3be c1f1 b8be
00000070: f89c d33d 7dcd 71bd 1248 7abb 63a1 653e
00000080: 4e40 c93f 7198 493e 0639 18bf 98fd 133f
00000090: de7c 4f3f 6cf6 9dbf 3f2e 7ebe a7a3 b03e
000000a0: 7239 46bf 8b52 033e 3598 1fc0 1e7b b43f
000000b0: f2b5 b5bf d878 013f c125 61bf 1410 44bf
000000c0: 59c7 933f ff11 a2bf bf2c 173d 3897 a3be
000000d0: eb49 dabe c51a bbbe 1d23 9fbd a83c ed3e
000000e0: 7207 393f 8ec5 3c3e 2a6a 353e 82dc 8ebd
000000f0: ab82 11bf 6391 8f3d eb1e 033f c0d0 203f
00000100: 4bfe 80bf 771d 76be 2ab1 89be 3878 bf3b
00000110: 471d 15be 77f9 023e c354 8dbe f5b8 37bf
00000120: 56a7 7e3f ad03 8a3f 99b0 a5bf 4830 aebd
00000130: 4c06 82bd 3fcb 50be f229 90be f2a1 17be
00000140: 5666 9f3e 1e95 6cbe 9058 c53e a636 503f
00000150: 6446 87bf db2b 92bf 8b6f 9ec0 0254 e93e
00000160: f8c7 753e 6cd8 c9be c86e b6c0 e5e2 f5c0
00000170: 7d3b 3fc1 c3ba acbe d99c b5be f06f bf3f
00000180: 39bf 2e3f a1fc 303f 33ff 5d3f 5d92 5fbe
00000190: 4708 a13f ff84 74bf 7b89 d1be 921d 003f
000001a0: d6e7 cebe f015 32bf 8b5a 9a3f ec62 313f
000001b0: 2858 8ebf bea4 883f c4ee acbd ece6 dcbe
000001c0: e1e6 193c 7d44 853e 502c 51be 0160 a93f
000001d0: 3b04 b23e a01a 943f 411b 93be e0be 81bd
000001e0: 96a2 00bf 10df e6be c955 27be 4fb3 923f
000001f0: 00e0 6abf cc10 c43f 5c78 33bf 35be 87c0
00000200: 15ea 2f3c e4bb 8ebc 5db7 b9be 7ae8 efbf
00000210: 43fe c93f c8ed 293f fd0d f6be ab6a 1dbe
00000220: e0c6 d7bf e4f5 6b3f 763b 623f 8a3b 5abf
00000230: 64dc 3a3e 4ec9 6fbe 78c5 35bd bad1 28be
00000240: bff7 58be 7b34 d3bf 4fb7 2a3f a92f c13e
00000250: b751 aa3f 0778 a9bf

fc1.bias f4 [30]
-0.0863988 -0.92168355 -0.6593465 0.46432838 -0.27256727 -0.39799926 0.10526155 -0.22613518
1.0339713 0.77579266 -0.2950076 0.4919358 0.46233347 -0.27555662 -1.1468997 -0.2339295
1.2867777 0.03807846 -0.021079605 0.24749358 -0.27979535 -0.26139343 -0.5402749 0.0986124
0.6061973 -0.18464859 0.06704726 -0.9910386 -0.35141003 -0.5217808
00000000: dbf1 b0bd 74f3 6bbf efca 28bf 73bc ed3e
00000010: f08d 8bbe 8fc6 cbbe 5e93 d73d fb8f 67be
00000020: 2c59 843f 599a 463f 3c0b 97be 02df fb3e
00000030: f9b6 ec3e c215 8dbe 9ccd 92bf 378b 6fbe
00000040: 22b5 a43f 29f8 1b3d 23af acbc f56e 7d3e
00000050: 5641 8fbe 5cd5 85be 754f 0abf 4cf5 c93d
00000060: bf2f 1b3f 8514 3dbe 1350 893d b5b4 7dbf
00000070: 04ec b3be 6d93 05bf

fc2.weight f4 [3, 30]
-0.8284291 -1.3509058 1.7283113 0.2513456 0.050974414 0.17770395 0.016933342 0.24089737
1.663147 -0.61739945 0.007525149 -0.6322662 -0.2807767 0.091480054 2.0918992 -0.0894854
0.35114872 -0.3654934 2.6576235 -1.0242107 -0.87298506 -0.9532953 -0.053261414 -1.2610168
-0.231593 -3.5680802 2.0642092 -0.32322803 -0.11540496 -1.322128 -1.158942 -1.2061703
1.3748153 -0.89160556 0.04005581 0.19952884 -0.36802268 -1.7940774 0.9245245 -1.5285745
0.07992718 -0.7951162 -1.3274467 -0.0279995 2.7076786 -0.15691037 1.5094347 1.5859532
3.506473 -0.32022524 2.3741317 -0.49233878 -0.16694541 -0.6555416 0.6201525 -2.5122786
1.0014323 -2.1425252 -7.498264e-05 -0.56329256 -0.09583901 -0.7672057 -0.4962015 0.57870066
-0.13284492 -0.107811056 -0.8522281 1.3091964 0.9441302 -0.542225 -0.12927417 0.033763207
-0.07840939 0.09990778 3.3287208 -0.12386967 0.3798337 1.0152045 1.6246036 0.06933857
0.28946817 -1.2465814 -0.1875876 -1.1670974 -1.1937971 0.18496296 0.2708764 -2.3305717
0.15434027 -1.4030412
00000000: ee13 54bf 7bea acbf 4e39 dd3f 5fb0 803e
00000010: 8cca 503d 06f8 353e cbb7 8a3c cdad 763e
00000020: 00e2 d43f e40d 1ebf 8695 f63b 33dc 21bf
00000030: f7c1 8fbe e559 bb3d ade1 0540 1f44 b7bd
00000040: c4c9 b33e f321 bbbe 8116 2a40 5619 83bf
00000050: f37b 5fbf 290b 74bf a428 5abd 0069 a1bf
00000060: b726 6dbe 6d5b 64c0 011c 0440 257e a5be
00000070: 7059 ecbd 7e3b a9bf 3658 94bf ca63 9abf
00000080: f3f9 af3f 4340 64bf 9011 243d 4a51 4c3e
00000090: 786d bcbe 54a4 e5bf a3ad 6c3f 54a8 c3bf
000000a0: ddb0 a33d bc8c 4bbf c6e9 a9bf 355f e5bc
000000b0: 9b4a 2d40 1dad 20be 2835 c13f 8400 cb3f
000000c0: 0e6a 6040 90f4 a3be c6f1 1740 d413 fcbe
000000d0: bdf3 2abe 93d1 27bf 50c2 1e3f 2cc9 20c0
000000e0: ef2e 803f 221f 09c0 0040 9db8 f133 10bf
000000f0: 3e47 c4bd 9867 44bf 1f0e febe ba25 143f
00000100: 8008 08be 0bcc dcbd 9f2b 5abf bf93 a73f
00000110: 84b2 713f 42cf 0abf 7360 04be 4a4b 0a3d
00000120: 1a95 a0bd 739c cc3d c309 5540 62af fdbd
00000130: 9079 c23e 39f2 813f 03f3 cf3f 6101 8e3d
00000140: 2c35 943e fb8f 9fbf f716 40be 7363 95bf
00000150: 58ce 98bf ee66 3d3e 50b0 8a3e 1628 15c0
00000160: 600b 1e3e db96 b3bf

fc2.bias f4 [3]
-0.36964428 0.3460639 0.459767
00000000: 0442 bdbe 4a2f b13e 9566 eb3e

exp_avg f4 [30, 5]
0.00019833335 0.0025072047 0.00031554565 0.00080314314 -0.00080314314 -0.00011567533 0.002375951 -0.0005125479
0.0021118992 -0.0021118992 0.0010890272 -0.0038108155 0.0008695042 -0.0028174026 0.0028174026 0.0006857169
0.0017851215 -0.0006986441 0.00086049375 -0.00086049375 0.0 0.0 0.0 0.0
0.0 6e-45 0.0 0.0 6e-45 -6e-45 -0.0014537099 -0.0010378119
-0.00032038093 -0.0004523929 0.0004523929 0.0009716321 0.0011123524 -0.0014963975 0.0002663238 -0.0002663238
0.0012422933 -0.002564017 -0.00018384118 -0.0007772732 0.0007772732 -0.00077262317 -2.5539193e-05 -0.0001607255
0.00030770322 -0.00030770322 6e-45 0.0 0.0 -6e-45 6e-45 -0.0008525506
0.0015133575 -0.00085029734 0.00095174275 -0.00095174275 0.000491536 0.002380883 4.235457e-05 0.000459649
-0.000459649 0.0 0.0 6e-45 -6e-45 6e-45 0.0007176881 0.00022181589
0.0014658237 0.00028407772 -0.00028407772 0.0 0.0 0.0 0.0 0.0
0.0017368209 -0.0011283988 0.0010686064 -0.0013232497 0.0013232497 0.00022316647 -1.1816219e-06 0.0007071416
0.000432784 -0.000432784 -6e-45 -6e-45 6e-45 6e-45 -6e-45 -0.00083970896
0.0014085446 -0.0007979436 0.0012032805 -0.0012032805 4.5679742e-05 -0.0012429215 -0.00060231064 -0.00031233736
0.00031233736 -0.0004861973 -0.0010072967 -4.2868363e-05 0.00056826015 -0.00056826015 0.0 0.0
6e-45 6e-45 -6e-45 -0.0033006938 -0.0007085688 -0.0013402572 0.00052246597 -0.00052246597
-0.0020794834 -0.0025832546 -0.00059318973 -0.00066332886 0.00066332886 0.000214273 0.00022712775 -1.5785266e-06
6.538758e-05 -6.538758e-05 -9.309294e-05 -0.0011120958 0.0010630344 -0.0004147127 0.0004147127 -0.0005142869
-6e-45 -0.00062775996 -0.0004756039 0.0004756039 0.0 0.0 0.0 0.0
0.0 -0.00048370814 0.0025183936 -0.00033345522 0.0015666353 -0.0015666353
00000000: b4f7 4f39 ea4f 243b d26f a539 068a 523a
00000010: 068a 52ba b896 f2b8 d8b5 1b3b 825c 06ba
00000020: ca67 0a3b ca67 0abb b0bd 8e3a e0be 79bb
00000030: 70ef 633a 2ca4 38bb 2ca4 383b afc1 333a
00000040: bdfa e93a 3625 37ba c292 613a c292 61ba
00000050: 0000 0000 0000 0000 0000 0000 0000 0000
00000060: 0000 0000 0400 0000 0000 0000 0000 0000
00000070: 0400 0000 0400 0080 698a beba 3007 88ba
00000080: cdf8 a7b9 262f edb9 262f ed39 20b5 7e3a
00000090: 5acc 913a c522 c4ba 60a1 8b39 60a1 8bb9
000000a0: 72d4 a23a 1109 28bb 7ec5 40b9 ecc1 4bba
000000b0: ecc1 4b3a dd89 4aba 003d d6b7 6c88 28b9
000000c0: 3a53 a139 3a53 a1b9 0400 0000 0000 0000
000000d0: 0000 0000 0400 0080 0400 0000 b47d 5fba
000000e0: da5b c63a 7de6 5eba 607e 793a 607e 79ba
000000f0: 6cda 003a 9708 1c3b e0a5 3138 0bfd f039
00000100: 0bfd f0b9 0000 0000 0000 0000 0400 0000
00000110: 0400 0080 0400 0000 3c23 3c3a 4097 6839
00000120: e220 c03a 44f0 9439 44f0 94b9 0000 0000
00000130: 0000 0000 0000 0000 0000 0000 0000 0000
00000140: 0aa6 e33a c8e6 93ba 7b10 8c3a e470 adba
00000150: e470 ad3a cb01 6a39 3898 9eb5 785f 393a
00000160: 49e7 e239 49e7 e2b9 0400 0080 0400 0080
00000170: 0400 0000 0400 0000 0400 0080 ea1f 5cba
00000180: ea9e b83a 172d 51ba 65b7 9d3a 65b7 9dba
00000190: 4098 3f38 86e9 a2ba 62e4 1dba 36c1 a3b9
000001a0: 36c1 a339 4ce8 feb9 4507 84ba 8ecd 33b8
000001b0: 4bf7 143a 4bf7 14ba 0000 0000 0000 0000
000001c0: 0400 0000 0400 0000 0400 0080 7450 58bb
000001d0: 3fbf 39ba 92ab afba 19f6 083a 19f6 08ba
000001e0: f147 08bb d24b 29bb 4a80 1bba 3fe3 2dba
000001f0: 3fe3 2d3a 78ae 6039 2429 6e39 c3dd d3b5
00000200: b120 8938 b120 89b8 e43a c3b8 bec3 91ba
00000210: 8455 8b3a cc6d d9b9 cc6d d939 36d1 06ba
00000220: 0400 0080 4290 24ba 7a5a f9b9 7a5a f939
00000230: 0000 0000 0000 0000 0000 0000 0000 0000
00000240: 0000 0000 359a fdb9 a20b 253b 9ad3 aeb9
00000250: 8f57 cd3a 8f57 cdba

exp_avg_sq f4 [30, 5]
6.0080856e-05 0.00020093855 6.258728e-05 4.8846567e-05 4.8846567e-05 6.5120425e-05 0.000107233835 6.659679e-05
6.500893e-05 6.500893e-05 0.00015775082 0.00076668477 0.00015710894 0.00012383526 0.00012383526 4.9829316e-05
6.7527406e-05 4.9882387e-05 3.199321e-05 3.199321e-05 0.0 0.0 0.0 0.0
0.0 1.2342896e-15 0.0 0.0 5.1055234e-16 5.1055234e-16 2.5359517e-05 2.8319411e-05
1.2760941e-05 1.1785912e-05 1.1785912e-05 7.527443e-05 0.000113588765 3.758052e-05 7.4686905e-05 7.4686905e-05
4.208568e-05 0.0006230643 2.636491e-05 0.00010289189 0.00010289189 9.365672e-05 0.000160195 9.409978e-05
6.5392465e-05 6.5392465e-05 7e-43 0.0 0.0 8.376e-42 8.376e-42 3.868182e-05
0.00011862025 4.9145285e-05 3.992232e-05 3.992232e-05 6.2022475e-05 8.234039e-05 7.857313e-05 4.190976e-05
4.190976e-05 0.0 0.0 7e-43 1.2947e-41 1.2947e-41 0.00032375057 0.00031436098
0.00031923884 0.00024713582 0.00024713582 0.0 0.0 0.0 0.0 0.0
0.00011329106 0.00013561908 0.00014464177 9.592859e-05 9.592859e-05 1.2769393e-06 1.1730354e-10 1.8399614e-05
1.331275e-05 1.331275e-05 5.855017e-13 3.658199e-13 1.762766e-14 3.2078728e-07 3.2078728e-07 2.6827915e-05
0.00024394962 2.760066e-05 3.5174427e-05 3.5174427e-05 0.00019117704 0.0001645409 0.00019066455 0.00012509378
0.00012509378 2.2816841e-05 0.00020612028 1.8706629e-05 3.4241337e-05 3.4241337e-05 0.0 0.0
1.979e-42 1.61169e-40 1.61169e-40 8.9675385e-05 0.0004353783 6.839522e-05 8.578003e-05 8.578003e-05
4.3604556e-05 5.9444526e-05 2.4202895e-05 2.3648317e-05 2.3648317e-05 2.9953466e-07 3.0615095e-07 2.6505995e-11
6.926451e-08 6.926451e-08 4.4240325e-05 3.8731087e-05 6.216893e-05 5.5829107e-05 5.5829107e-05 7.35497e-06
1.4876373e-13 8.406155e-06 2.4868892e-05 2.4868892e-05 0.0 0.0 0.0 0.0
0.0 4.5306824e-05 0.00041218539 4.2395965e-05 7.7608885e-05 7.7608885e-05
00000000: 54ff 7b38 08b3 5239 4a41 8338 9ae0 4c38
00000010: 9ae0 4c38 4391 8838 bae2 e038 e1a9 8b38
00000020: 6755 8838 6755 8838 ea69 2539 58fb 483a
00000030: 9cbd 2439 c6d9 0139 c6d9 0139 d2ff 5038
00000040: 809d 8d38 ce38 5138 7330 0638 7330 0638
00000050: 0000 0000 0000 0000 0000 0000 0000 0000
00000060: 0000 0000 40e1 b126 0000 0000 0000 0000
00000070: 1d28 1326 1d28 1326 26bb d437 798f ed37
00000080: d317 5637 1bbc 4537 1bbc 4537 a7dc 9d38
00000090: 8136 ee38 c79f 1d38 3aa1 9c38 3aa1 9c38
000000a0: 2885 3038 2355 233a 372a dd37 aac7 d738
000000b0: aac7 d738 9269 c438 05fa 2739 6f57 c538
000000c0: 5023 8938 5023 8938 f401 0000 0000 0000
000000d0: 0000 0000 5917 0000 5917 0000 4a3e 2238
000000e0: c3c3 f838 5921 4e38 4472 2738 4472 2738
000000f0: 1012 8238 29ae ac38 a1c7 a438 43c8 2f38
00000100: 43c8 2f38 0000 0000 0000 0000 f401 0000
00000110: 1724 0000 1724 0000 11bd a939 d1d0 a439
00000120: 835f a739 0292 8139 0292 8139 0000 0000
00000130: 0000 0000 0000 0000 0000 0000 0000 0000
00000140: ad96 ed38 f834 0e39 fbaa 1739 452d c938
00000150: 452d c938 4d63 ab35 03fa 002f df58 9a37
00000160: d359 5f37 d359 5f37 d8cd 242b 34f0 cd2a
00000170: 9ec6 9e28 ab38 ac34 ab38 ac34 820c e137
00000180: bacc 7f39 f787 e737 4188 1338 4188 1338
00000190: b276 4839 9d88 2c39 20ed 4739 9b2b 0339
000001a0: 9b2b 0339 cb66 bf37 fe21 5839 2eec 9c37
000001b0: 5b9e 0f38 5b9e 0f38 0000 0000 0000 0000
000001c0: 8405 0000 46c1 0100 46c1 0100 1b10 bc38
000001d0: 7c43 e439 676f 8f38 cee4 b338 cee4 b338
000001e0: 09e4 3638 1354 7938 5207 cb37 6060 c637
000001f0: 6060 c637 bbcf a034 115d a434 3226 e92d
00000200: 91be 9433 91be 9433 b08e 3938 3073 2238
00000210: b160 8238 0c2a 6a38 0c2a 6a38 b6ca f636
00000220: 3a7e 272a 2908 0d37 8a9d d037 8a9d d037
00000230: 0000 0000 0000 0000 0000 0000 0000 0000
00000240: 0000 0000 d507 3e38 961a d839 52d2 3138
00000250: f4c1 a238 f4c1 a238

exp_avg f4 [30]
0.0010624664 0.0037998569 -0.00262263 0.003134481 0.0 6e-45 -0.003444972 0.0043727322
-0.0016078248 -0.0008869276 6e-45 0.0022328915 0.0021555594 6e-45 0.0003020576 0.0
-0.0006895749 0.0031449765 6e-45 0.0016941321 0.0011661258 -0.0016987541 6e-45 -0.0048506246
-0.006258745 0.00025330725 7.0708455e-05 -0.0007371863 0.0 0.0022512097
00000000: 7542 8b3a 0507 793b 6ee0 2bbb dd6b 4d3b
00000010: 0000 0000 0400 0000 0ac5 61bb 2349 8f3b
00000020: a6bd d2ba b480 68ba 0400 0000 b455 123b
00000030: 4944 0d3b 0400 0000 7c5d 9e39 0000 0000
00000040: 97c4 34ba f31b 4e3b 0400 0000 a40d de3a
00000050: b0d8 983a bba8 deba 0400 0000 fdf1 9ebb
00000060: 2916 cdbb 53ce 8439 5049 9438 bc3f 41ba
00000070: 0000 0000 0889 133b

exp_avg_sq f4 [30]
0.00023756284 0.00013549038 0.000797325 0.000120594705 0.0 1.2342896e-15 5.18287e-05 0.00027183662
0.0007660246 0.0002429424 1.1552e-41 0.00018228522 0.00014632281 1.7431e-41 0.0004020989 0.0
0.0002922139 6.659658e-05 1.1918801e-06 0.00028680585 0.00022293057 0.00027481077 1.82547e-40 0.0005648182
0.0001059982 3.3890674e-07 0.0001829836 3.3390952e-05 0.0 0.00045437677
00000000: 4a1a 7939 6c12 0e39 9303 513a cae7 fc38
00000010: 0000 0000 40e1 b126 a562 5938 4b85 8e39
00000020: 0acf 483a 5bbe 7e39 3420 0000 d123 3f39
00000030: 3b6e 1939 9730 0000 cdd0 d239 0000 0000
00000040: 4934 9939 c4a9 8b38 b0f8 9f35 6e5e 9639
00000050: 78c2 6939 7a14 9039 defc 0100 4f10 143a
00000060: 5a4b de38 fdf2 b534 49df 3f39 430d 0c38
00000070: 0000 0000 6b39 ee39

exp_avg f4 [3, 30]
-0.002359802 -0.0009631816 -0.0006410797 -0.0013212019 0.0 0.0 -6.237696e-05 0.00040246337
-0.005129614 -0.0026690285 6e-45 -0.00088053884 -0.002170671 6e-45 0.00048293866 0.0
-0.0023111773 0.0001839652 6e-45 -0.00028437324 -0.00022562954 -5.738705e-05 0.0 0.0015144513
-0.0026105284 -4.7138128e-26 0.00065885356 0.00043411626 0.0 -0.0036478317 -0.0017260473 -6.6432403e-06
-0.002100769 -0.0015294463 0.0 6e-45 -1.8330291e-05 0.00025390316 -0.001221848 -0.0004051024
6e-45 -0.0014178199 -0.00094677205 -6e-45 -4.6796107e-05 0.0 -0.0026538165 0.00031292302
6e-45 -0.000537985 0.00024470442 0.00056391844 -6e-45 0.0009678358 -0.00030399737 -6e-45
0.0019082674 0.00045589992 0.0 -0.0003869114 0.003524682 -0.00010647723 0.004447517 0.0059031798
0.0 -6e-45 0.0016873203 0.0019509305 0.0052373796 0.004553537 0.0 0.0050620954
0.0027691578 6e-45 0.00017643943 0.0 0.006958415 4.4911867e-05 -6e-45 0.005554702
0.0003929401 0.0011786812 -6e-45 0.0036016223 0.0027179786 0.00070794806 0.00022473607 -0.00022532861
0.0 -0.00022675592
00000000: e8a6 1abb 067e 7cba 210e 28ba 2e2c adba
00000010: 0000 0000 0000 0000 60d0 82b8 b801 d339
00000020: 5216 a8bb deea 2ebb 0400 0000 f6d3 66ba
00000030: d141 0ebb 0400 0000 ee32 fd39 0000 0000
00000040: 1f77 17bb c8e6 4039 0400 0000 ee17 95b9
00000050: f896 6cb9 e0b2 70b8 0000 0000 8e80 c63a
00000060: 6615 2bbb ad6a 6995 eab6 2c3a 199a e339
00000070: 0000 0000 7610 6fbb 893c e2ba 00e9 deb6
00000080: 0ead 09bb b477 c8ba 0000 0000 0400 0000
00000090: 00c4 99b7 4e1e 8539 6a26 a0ba ec63 d4b9
000000a0: 0400 0000 24d6 b9ba cc30 78ba 0400 0080
000000b0: f046 44b8 0000 0000 a7eb 2dbb d10f a439
000000c0: 0400 0000 9007 0dba ac4b 8039 edd3 133a
000000d0: 0400 0080 5cb6 7d3a d661 9fb9 0400 0080
000000e0: d41e fa3a da05 ef39 0000 0000 5eda cab9
000000f0: 5afe 663b 874c dfb8 7abc 913b 766f c13b
00000100: 0000 0000 0400 0080 1329 dd3a 5db6 ff3a
00000110: 539e ab3b d635 953b 0000 0000 efdf a53b
00000120: c27a 353b 0400 0000 9902 3939 0000 0000
00000130: 6a03 e43b c05f 3c38 0400 0080 3804 b63b
00000140: 8703 ce39 fa7d 9a3a 0400 0080 3209 6c3b
00000150: 1d20 323b 9795 393a 21a7 6b39 3046 6cb9
00000160: 0000 0000 54c5 6db9

exp_avg_sq f4 [3, 30]
0.00048685912 2.7163978e-05 0.0007613725 0.0006476003 0.0 0.0 0.00017815603 4.444051e-05
0.0008790308 0.00018128692 3.5536e-41 0.00045888775 0.00026928828 7e-43 7.2859134e-06 0.0
0.00076230674 3.2853416e-06 8.749732e-10 0.0006256385 1.2630284e-06 6.873586e-05 0.0 0.00021095786
0.00017882812 3.7919596e-09 1.2424006e-05 2.98745e-06 0.0 0.00022502698 0.0003486241 4.0299103e-05
0.0005068998 0.00040687903 0.0 7e-43 0.00026566343 2.531572e-06 6.7939916e-05 0.00011513252
7e-43 0.00019969899 0.00011694815 7e-43 2.6202468e-05 0.0 0.00042821097 1.7787949e-06
4.4584497e-10 0.00061066553 6.529396e-06 0.00015674504 3.8429e-41 0.00042272353 6.756031e-05 2.0754074e-13
3.385674e-05 4.6715804e-06 0.0 4.6455374e-05 0.00018806914 1.3170828e-05 0.00022924673 0.00024202385
0.0 3.5590977e-16 5.1904015e-05 2.3232436e-05 9.369691e-05 8.069864e-05 0.0 0.0001238762
4.0591436e-05 7e-43 6.285418e-06 0.0 0.00022058307 8.3869384e-07 1.9250551e-10 0.00028151312
3.793585e-06 6.82473e-05 2.786e-42 0.00012112779 3.421738e-05 4.840301e-06 3.7313132e-06 6.1940676e-07
0.0 1.527504e-05
00000000: 2041 ff39 33de e337 d896 473a b8c3 293a
00000010: 0000 0000 0000 0000 65cf 3a39 a265 3a38
00000020: c26e 663a d617 3e39 0f63 0000 df96 f039
00000030: 432f 8d39 f401 0000 8579 f436 0000 0000
00000040: 8ad5 473a bd79 5c36 c482 7030 e401 243a
00000050: 5385 a935 4926 9038 0000 0000 9234 5d39
00000060: cf83 3b39 6e4a 8231 b370 5037 007c 4836
00000070: 0000 0000 38f5 6b39 89c7 b639 d506 2938
00000080: 78e1 043a 6152 d539 0000 0000 f401 0000
00000090: be48 8b39 13e4 2936 f77a 8e38 4d73 f138
000000a0: f401 0000 4a66 5139 0f42 f538 f401 0000
000000b0: 5fcd db37 0000 0000 8181 e039 edbe ee35
000000c0: 1a1b f52f 1215 203a 1617 db36 ed5b 2439
000000d0: 206b 0000 fea0 dd39 2aaf 8d38 8cab 692a
000000e0: 6601 0e38 92c0 9c36 0000 0000 14d9 4238
000000f0: 6d34 4539 47f8 5c37 f361 7039 c8c7 7d39
00000100: 0000 0000 032b cd25 83b3 5938 47e3 c237
00000110: 257f c438 c13c a938 0000 0000 c4e4 0139
00000120: b940 2a38 f401 0000 54e7 d236 0000 0000
00000130: 514c 6739 9a22 6135 7ca9 532f 0d98 9339
00000140: 4b95 7e36 fd1f 8f38 c407 0000 fd05 fe38
00000150: a284 0f38 de69 a236 7967 7a36 4f45 2635
00000160: 0000 0000 e622 8037

exp_avg f4 [3]
-0.00096326723 -0.0017790701 0.0053443965
00000000: c583 7cba b02f e9ba 0c20 af3b

exp_avg_sq f4 [3]
0.00026663666 0.0001248607 8.985536e-05
00000000: 5ecb 8b39 0aed 0239 bb70 bc38
